AI-chatbot-main/data.pth (torch, 5271 bytes, 6 tensors)

l1.weight f4 [8, 60]
00000000: 5b0a 59be d264 0b3d c1dd bcbe 625f 7b3e
00000010: 4550 063e 9e76 9ebe 6bc9 bebd a773 a0be
00000020: 39dd cabe 1384 cb3e 19fd 85be 4f42 c43e
00000030: 756e 3b3f b8dc ce3e 2560 273f 095e 393e
00000040: ced4 2c3f 9e37 d53e 8697 79be 264c e73e
00000050: 868b 333f c0fa 52be 936e 2e3f a24d 1a3f
00000060: d7bf 2b3f 465c a93e 036c 093f 6f27 9f3e
00000070: 09ea 783e 9cca 653d 46da aa3d d752 83be
00000080: 7c15 f83e 6296 95bc daa0 e3be 17de 6c3b
00000090: d6f9 2d3f 1f2e 193f 9c99 f3bd e2ff 35be
000000a0: b378 ffbd 3747 44bd 0199 91bd 6abf e83e
000000b0: 0e94 213f 6d29 8ebe 4f86 873e c8a8 0e3f
000000c0: fa3b 073e c52f 873e 7889 f03e 60a6 553e
000000d0: 718c 2ebf 5135 87be 6c83 643e e70e 1a3f
000000e0: 0049 f83e e66b 003f 9e2f 0fbe b211 7a3e
000000f0: ab8d de3e 081d e9bc 66a1 abbe 9b54 183f
00000100: c14a 263e 5cef c4be 5de3 18be e3c6 b3be
00000110: 6835 3bbf 97ad 23be 127c e7be 2c87 163f
00000120: 55d4 d13e 3e53 95be 2c46 db3e b2ce 43be
00000130: c38e 533e 45d0 ad3e b6ff c7be b0e8 7ebe
00000140: f3a9 303f 86b9 f53e 93da 313f 366b 333f
00000150: 2048 4a3f 8164 253d 253b 923e 94c3 46be
00000160: 7349 9ebe 2893 69bd 1b81 93be a875 97be
00000170: bd6a 083f 7068 bf3e abff 9cbe 8738 69be
00000180: 270d 803e 7b83 a5be fae6 a5be fd14 b9be
00000190: 8ca6 88be b542 bdbe 581e 5cbe 87b5 b3be
000001a0: 7c11 7ebe 8a6d 35be 042a 8ebe ef08 cd3e
000001b0: 3eb3 c3bd 5f6d 9d3e 8dac 23be 7f3d 5ebe
000001c0: 08b6 6a3f 1889 ca3e 31bb 993e 88d6 acbe
000001d0: d41f bb3e 9c78 23be 602b e2bd bd0e 4f3e
000001e0: 648d 8bbe 113f e43e 2181 8b3e b76d 8bbe
000001f0: 527e 81bc d7fe a8be f9c3 c83e 0d87 d53d
00000200: 0cbe 3a3f 1941 d03e fb55 553e 9517 87be
00000210: 5b09 a5bc f48c 223e a51a 9b3e c8a1 063f
00000220: fbca 4abe b3a6 86bd 0a05 a9be 32fb 76be
00000230: c4bf 9ebe f867 edbd 6fde 98be a866 9dbe
00000240: 6fd1 f0be 077b 543e 0716 763e 69b8 aabe
00000250: fc70 1c3f a7a2 ad39 84d2 b63e 748c 90be
00000260: f7b2 a63e 9eb2 d5bd ed55 8f3e e390 093f
00000270: 631d 7bbe a312 293f 20ba c73e 0e71 0d3f
00000280: a408 583e c328 173f 5d78 6f3e 026c 3c3f
00000290: cdc2 403e aa49 aebe 1687 c9be ca5f 463e
000002a0: e415 a13e 5dd1 553e 87a9 053f fb38 0e3f
000002b0: b938 0e3f 9803 14bd 3116 90be 646a c6be
000002c0: 6516 70be 016f 53be 78e7 933e 8df3 953e
000002d0: 860f 27be 8a67 95be 43dd cc3e afd6 34bd
000002e0: 1e67 873e 708f 523f f781 b03e 7e21 b33e
000002f0: 64e7 313f bfa7 3d3f 92c4 ce3e 775d 963d
00000300: ddff e3be e9b7 413f 63ff 62bd 337a d3bd
00000310: 90ad 8abe 6b1c bd3d f8ed 3f3f e466 123f
00000320: a70e 8ebb d463 61be c0ef 9439 c731 c7bc
00000330: 4d53 e4be 1a24 c93c f571 fa3d a835 733f
00000340: b5e2 13be 8179 1b3f a5ed a8be ea2f de3e
00000350: 8f2e 8fbe bb31 aabd cddc c83e 7f11 573e
00000360: 091d f6be 511d 3e3f 3108 fe3e b8d9 143f
00000370: 3968 7d3e 2161 123f 881f 9b3e c422 dd3e
00000380: 8e08 5b3f 88c8 e33e 92fc 473f af06 a5be
00000390: 9c48 de3d 8280 933e 53e4 463f f3bc 103e
000003a0: 6f84 31bf acef fbbd 2272 ba3e 38d4 653f
000003b0: bb10 d2be c6b1 fe3e 6b95 d53e 27a5 013f
000003c0: b4cc 563f 9f08 0a3f 9258 713d d376 ee3e
000003d0: f9e2 3d3b 3f7b f0be 541a 3cbb 3122 273e
000003e0: 2522 d1be a4ac d43e 98c4 003d 5f47 c83e
000003f0: 9161 cfbd 6c61 d1be 1c85 40be 1c23 cd3e
-0.21195357 0.034031697 -0.36887935 0.24548104 0.13116558 -0.30949873 -0.09315761 -0.31338236
-0.39621904 0.39749202 -0.2616966 0.3833184 0.7321542 0.4040277 0.6538108 0.18102278
0.67512214 0.41643995 -0.24374208 0.45175284 0.7013477 -0.20603466 0.6813747 0.6027471
0.670896 0.33078212 0.5368044 0.31084773 0.24308027 0.056101426 0.083424136 -0.2564914
0.4845389 -0.018260185 -0.44458658 0.0036143118 0.67959344 0.59836 -0.11894533 -0.17773393
-0.124741934 -0.04791948 -0.07109261 0.45458537 0.6311654 -0.2776598 0.26469657 0.5572629
0.13206473 0.26403633 0.4697988 0.20864248 -0.68183047 -0.26407865 0.22315758 0.6017899
0.48493195 0.5016464 -0.13983008 0.24420813 0.4346746 -0.028456226 -0.33521575 0.595041
0.16239454 -0.38463867 -0.14930482 -0.35112676 -0.73128366 -0.15984188 -0.45211846 0.58800006
0.4098231 -0.2916507 0.42826974 -0.19121817 0.20659928 0.3394796 -0.3906228 -0.2489345
0.6900932 0.47993106 0.6947414 0.70085466 0.79016304 0.04037905 0.2856075 -0.19410545
-0.30915412 -0.057025105 -0.28809437 -0.29581952 0.5328787 0.37384367 -0.3066381 -0.2277547
0.25010034 -0.32326874 -0.32402784 -0.36148825 -0.26689565 -0.36964956 -0.2149595 -0.35099432
-0.24811357 -0.17717567 -0.2776643 0.40045878 -0.09555672 0.30747506 -0.15983792 -0.21703146
0.9168401 0.3955772 0.30025628 -0.33757424 0.3654772 -0.15963978 -0.110434294 0.20220466
-0.2725631 0.44579366 0.27246955 -0.27232143 -0.015807305 -0.33006927 0.39212015 0.104261495
0.7294624 0.40674666 0.2083358 -0.2638518 -0.020146063 0.15874082 0.30293766 0.5259061
-0.19803993 -0.06574764 -0.33011657 -0.24119261 -0.3100568 -0.11592096 -0.29857203 -0.30742383
-0.47034785 0.20750056 0.2403184 -0.3334382 0.611099 0.00033118317 0.35707486 -0.28232157
0.32558414 -0.10434459 0.27995244 0.53736705 -0.24522929 0.6604406 0.3900919 0.5525063
0.21097046 0.5904657 0.23385759 0.73602307 0.1882431 -0.34040576 -0.39360875 0.19372478
0.31462014 0.20880647 0.52211803 0.55555695 0.555553 -0.03613624 -0.2814193 -0.38753045
-0.23446043 -0.20647813 0.28887534 0.29287377 -0.16314515 -0.29180557 0.4001256 -0.04415005
0.2644586 0.8225012 0.34474155 0.3498649 0.694937 0.74084085 0.40384346 0.07342046
-0.44531146 0.7567125 -0.055419337 -0.10326042 -0.27085543 0.09233936 0.74972486 0.5718825
-0.004335243 -0.22010738 0.00028407387 -0.024315728 -0.44594803 0.024553347 0.12228767 0.9500375
-0.1444195 0.60732275 -0.32993808 0.4339593 -0.2796521 -0.083102666 0.39230958 0.21002768
-0.48069027 0.74263483 0.49615625 0.5814471 0.24746789 0.57179457 0.30297494 0.43190587
0.8555993 0.4448893 0.78119767 -0.32231662 0.10853693 0.2880898 0.77692145 0.14134578
-0.693427 -0.12301573 0.364152 0.89776945 -0.4102839 0.49745005 0.4171556 0.5064263
0.839061 0.53919405 0.058922358 0.4657503 0.0028974398 -0.4696903 -0.0028702216 0.16321637
-0.40846363 0.41537964 0.031437486 0.39116952 -0.10126031 -0.4089464 -0.18800777 0.4006585

l1.bias f4 [8]
00000000: c09a 2e3f 032f 3b3f 95b9 a83e ee5b 693f
00000010: 2184 4e3f 3aa1 113f bef2 4b3f 2cc1 ec3e
0.6820488 0.7311861 0.32954088 0.911559 0.8067036 0.5688664 0.7966727 0.46241128

l2.weight f4 [8, 8]
00000000: dfae 0d3f 0b5b 73bf e9d1 1e3f 5db3 333d
00000010: 80ba 3f3f 8038 9dbe 9931 3fbf ff5f 1e3f
00000020: 921f 813f 0251 c33d 9be9 4cbf e750 2b3f
00000030: 6330 fb3e 0ade 8fbf c490 973e e615 3ebc
00000040: ef57 083e bbc6 f13e b7cc 2a3f 7416 55bf
00000050: fc6d 413e 6d80 e83e 24e4 28bf 5c8c 4c3f
00000060: dab2 b0be ac01 eb3e 34fd 693f 1538 9d3e
00000070: 94ce d93f 34e3 893f 5397 8d3f abdd 49bd
00000080: 68d4 9e3f d66e 483f b674 e2be a89e 123f
00000090: 4f48 1f3f be2d 90bf 1dab 90bf ab2c 1a3e
000000a0: 239c 1a3f 68eb a3bf 186d 943f ae2a 0d3f
000000b0: 9f2c 0a3f a504 4e3f 1e10 17bf deac 8b3f
000000c0: 035e 523f 4d00 f13e 8c7a 40bd 3d7e cabe
000000d0: 4216 2ebf 86e0 f6bd 740b 88bf 8be3 5c3f
000000e0: 8a75 253e 5eb9 60bf a065 f0be 88db c73f
000000f0: 7ffb 93bf 00c7 233f df9e 933f 5c15 10be
0.5534496 -0.95060796 0.6203905 0.043872226 0.7489395 -0.3070717 -0.74685055 0.6186523
1.008776 0.095369354 -0.80043954 0.6692032 0.49060354 -1.1239636 0.29602635 -0.011601901
0.13314794 0.47221932 0.6671862 -0.83237386 0.18889612 0.4541048 -0.65973115 0.7990167
-0.34511453 0.45899713 0.9140198 0.3070685 1.7016168 1.0772462 1.1061805 -0.049283665
1.2408571 0.7829412 -0.44229668 0.5727334 0.6221971 -1.126396 -1.130222 0.15056102
0.60394496 -1.2806215 1.1595793 0.5514325 0.53974336 0.80475837 -0.5900897 1.091213
0.821747 0.47070542 -0.04699187 -0.39549437 -0.6800271 -0.12054543 -1.0628495 0.86284703
0.16158119 -0.8778285 -0.46952534 1.5613871 -1.1561126 0.63975525 1.1532859 -0.14070648

l2.bias f4 [8]
00000000: 2da9 babe 337d 4e3f 02e8 0dbe 8c43 4d3f
00000010: da56 173f 2e01 23be 361f 65be 9ffa 493f
-0.36457196 0.8065979 -0.13858035 0.80181193 0.591169 -0.15918419 -0.22375187 0.7889804

l3.weight f4 [8, 8]
00000000: 2383 a5be 66c0 d2bc 7e9d 8e3f 6dde 6bbf
00000010: db19 053f 03b9 c6be 96b2 153f df28 23bf
00000020: f555 9e3e 48aa 52bf 2ca8 503f 2acc b13d
00000030: 9159 93bf 4ece 453f 83a4 6ebf 4d31 87bf
00000040: 8219 03bf 147d a13e 74e4 f7bf f8eb b83e
00000050: ba5f a5bf fa86 e0bf a582 59bf 54de 643f
00000060: aab4 49bf a9fa 523f f380 b0bf 4e34 4e3e
00000070: c43b 4f3f dcaa 85bf 345a 12bf 516e 9bbf
00000080: 46af 01bf e8b8 943e 03ea 01c0 6a39 13bf
00000090: 9b37 8e3e 7a42 a1be f4d4 6cbf 8fb7 043f
000000a0: bda8 72bf 40a8 c3bf ff4e fbbf 04d1 983e
000000b0: d84b 69bf f286 1a3f 503c 40bf ba60 1f3f
000000c0: 9cc9 dd3e 6c93 9c3e c336 97be afa0 7cbe
000000d0: 5c18 d7bd 4cee f23e 1715 babe 7885 57bf
000000e0: 9443 11bf d779 2fbf 1148 d83e e67d 863f
000000f0: 15b2 5dbf ce83 64bf 1f7d 58bf 4d1f 57bf
-0.32326612 -0.025726508 1.1141813 -0.9213627 0.5199258 -0.38813028 0.58475626 -0.6373424
0.30924955 -0.8229108 0.8150661 0.08681519 -1.1511708 0.7726792 -0.93219775 -1.056192
-0.51210797 0.3154074 -1.9366593 0.3611753 -1.2919838 -1.7541192 -0.8496497 0.89401746
-0.78791296 0.8241373 -1.3789352 0.2013714 0.8095057 -1.0442767 -0.5716889 -1.2143041
-0.5065807 0.29047322 -2.029908 -0.5750948 0.277768 -0.3149603 -0.9251244 0.5184259
-0.94788724 -1.5285721 -1.9633483 0.29846966 -0.91131353 0.6036216 -0.7509203 0.6225697
0.43317878 0.30581224 -0.29533967 -0.24670671 -0.10502693 0.4744743 -0.36344215 -0.8418803
-0.5674374 -0.6854529 0.42242482 1.0507171 -0.86599857 -0.8926362 -0.8456592 -0.84032136

l3.bias f4 [8]
00000000: bdd2 57be a39a fbbd c028 0e3e 6d03 ab3e
00000010: dec7 b1be c9ea 62be bf59 8ebe f493 6b3e
-0.21076484 -0.12285354 0.13882732 0.3340105 -0.347228 -0.22159876 -0.27802846 0.23005658
